IAT_enhance/workdirs/snapshots_folder_lol_v1_whole/best_Epoch.pth (torch, 422783 bytes, 126 tensors)

local_net.conv1.weight f4 [16, 3, 3, 3]
00000000: 8940 b2bc 6691 1bbd 8c6b c0bd 5cbc 2d3e
00000010: 3ff0 c1bb 6257 c0bd 4ae6 bc3d e97e 05be
00000020: 2636 aebd 348e 04be 4deb 733d ff25 98bd
00000030: 419e 9dbc d20d 1bbd 5945 10be ecbd 2cbe
00000040: 1213 0cbe 33c3 08be f28f c1bd 71ef 79be
00000050: 3e38 82bd 802f 9ebd 26c2 39be 7657 e3bd
00000060: 4f31 e7bd d7ef 0dbe 54f5 24be 3127 dc3c
00000070: e610 9e3c b2ca cc3a 716b 6b3e f473 07be
00000080: e9f7 c03c ecc8 473d 5616 cdbc 0ba1 e03d
00000090: 46d2 8bbd bfa1 56bd e525 76be a8d7 09bd
000000a0: f3c8 203e ec1f 113d 2cff 693d ba05 9fbd
000000b0: 1459 77bd 9fe4 473d 216f 17be c7cc dbbc
000000c0: c18c aa3d f29e b8bd 9992 82bd 9662 5f3e
000000d0: e4b1 a0bd 9207 ae3d a22c 483e d511 29be
000000e0: c508 ecbd d44d febd cbaf 02be a07b 70be
000000f0: 5e55 36be 041c 023b a26f 8ebd c2a0 a23d
00000100: 4bfd 15be 61ba e6bc 651f 6dbd 8058 573e
00000110: b5e9 15be 945a 8dbd 4330 9f3d a917 73bd
00000120: 0749 2abe ac2a 6a3d e32e e8bd 18ed aa3c
00000130: a772 553e e5a8 8cbd 1f6c a33c 61e4 303d
00000140: 8252 10bc 5e77 f1bd 0fe0 eb3c b32b 343d
00000150: 04c8 643d 5d8f e13d 97e0 efbc 6565 12bc
00000160: c5a8 d8bc bfbf 01bd 8f31 333e c234 873c
00000170: 3a73 3c3e 4c52 8d3e cb27 5a3d 0fcd 8bbd
00000180: c63f 9c3c 636d 0ebd 4005 21bd a84a 2f3e
00000190: 8702 e53d 9ede 023e a249 063e d729 823e
000001a0: aff2 6c3c 6f2c 8d3c f518 bebc f2a4 bcbb
000001b0: 0352 96bd b200 09be 3f63 a73d 9468 903c
000001c0: 0946 3bbe 2a81 583e 6945 c4bd b199 88bc
000001d0: f9a4 14be baaf 4bbd 53fa a33d ce47 c93d
000001e0: c0c4 5b3a 7b1c 573e feed 72bd aabc 27ba
000001f0: c186 e0bc 7349 93bd 982a 9bbd 6bd8 bc3d
00000200: 219d d7bd a6ce 843d dd2c 0c3e 051c c73d
00000210: feaf 27bc 09b9 97bd 0719 b0bd ac2b 8e3d
00000220: 5e84 713c ccab e43d e82e 0f3e 23be b0bc
00000230: 3a84 d5bd 8f57 d03d 616b f7bd 243f 993b
00000240: d5e5 15bd 9aaa 6f3a f098 e13d 728a 823d
00000250: d52b babd 49ca 27be 296a 4bbe 8cfa fd3d
00000260: c658 b63d 2971 733e 480e 583b f61b b93a
00000270: 2dff 663d dfb6 d5bd 26d8 ac3d b812 903d
00000280: 535a 90bc 79e2 1b3e 3fe2 253e 3626 213e
00000290: 5782 ccbd b041 d83c f83f b93c b4be 4d3c
000002a0: 8f3c 163b c3cc 00be 4c07 2d3e f707 04be
000002b0: 848e 9c3d 554b dc3d fb41 90bd 250a dfbd
000002c0: a88a bebd 9dd8 733d ade5 ee3c e370 a0bd
000002d0: 5dfe cdbd 899f 243e b1c1 ffbd 9533 bfbc
000002e0: e388 843c b744 75bd 51ac 04be b361 263e
000002f0: c77f 81be c09d 57bc 833c b9be 5bb7 87bd
00000300: 2a62 023e c75e 0e3c 29da d0bc a3e6 1ebe
00000310: f512 ddbd f09e 553d 9f68 253d c4bb 2cbe
00000320: e963 7ebe 52b7 17be ae28 2ebd ef2f f63d
00000330: 08cd d33d 9d65 7dbd 30a7 123e 3985 30bc
00000340: 6747 eebc 7adb 24bd 6fcd 1b3e 6840 5abd
00000350: 69e6 89bd 5f55 ffbb 698e 6f3d c113 1b3e
00000360: 7a05 913c 5619 84be 8327 7bbe d8cd 39be
00000370: 5849 57be 2da4 edbd fb69 cdbb ecb5 283d
00000380: 6948 64be df4a 59bd c696 99be 2e70 17be
00000390: b80d 383c e261 893d 2286 4e3d 587b 3f3d
000003a0: 8ce4 5ebd c4d2 c4bc 078c 803d 2e21 823d
000003b0: 6c22 43bd 7867 2fbb 4da3 e3bd cae5 03bd
000003c0: c0a5 6e3d 7b45 70bc 8fcf ad3d 4be6 433e
000003d0: 6410 17bd 3647 d2bd fbd1 9abe e54c 053e
000003e0: e63f 16be 5809 2a3e 0051 24bd 830d ef3d
000003f0: 4229 f73d e7d1 c6bd baa4 fa3d 0eae 2ebd
-0.021759288 -0.03798046 -0.09395513 0.16966385 -0.005918532 -0.09391667 0.09223612 -0.13036694
-0.08506422 -0.12944871 0.059550572 -0.07429122 -0.0192405 -0.037854977 -0.14088954 -0.16869324
-0.1367915 -0.13355713 -0.094512835 -0.24407746 -0.063583836 -0.07723904 -0.18140468 -0.11100666
-0.11288702 -0.13861023 -0.1610921 0.026874157 0.019295167 0.0015624373 0.22990204 -0.13227826
0.023555713 0.0487756 -0.025035065 0.109682165 -0.06827216 -0.052400347 -0.24037893 -0.03365293
0.15701656 0.035430834 0.057128116 -0.07764764 -0.060387686 0.048802014 -0.14788486 -0.026831044
0.08327628 -0.090146914 -0.063756175 0.21814951 -0.0784643 0.08497538 0.19548276 -0.16510709
-0.1152511 -0.12417188 -0.12762372 -0.23484659 -0.17806002 0.0019853124 -0.06954886 0.07940818
-0.14647405 -0.028165044 -0.05789127 0.21029854 -0.14639933 -0.06902042 0.07772877 -0.059348736
-0.1662942 0.0571696 -0.11337068 0.020865008 0.20844518 -0.068681516 0.019949017 0.04318655
-0.008808734 -0.117903456 0.028793363 0.043986987 0.055854812 0.110136725 -0.029281897 -0.008935307
-0.026447663 -0.031677004 0.17499374 0.01650465 0.1840333 0.2760185 0.053260606 -0.06826221
0.019073378 -0.034772288 -0.039311647 0.17118323 0.11182123 0.12780234 0.13114026 0.25422546
0.014462157 0.017233102 -0.02320526 -0.0057569677 -0.07339861 -0.13379171 0.081732266 0.017627992
-0.18288435 0.21143022 -0.095835514 -0.016674848 -0.14516057 -0.049728133 0.0800673 0.09828149
0.0008383505 0.21006958 -0.059309 -0.00063986576 -0.027408006 -0.07191744 -0.075764835 0.09220966
-0.10528017 0.064847276 0.13688989 0.09722141 -0.010234831 -0.074083395 -0.085985236 0.069419235
0.014741031 0.1116558 0.13982737 -0.02157504 -0.10425611 0.101729505 -0.12081028 0.0046767164
-0.036596138 0.0009142548 0.11015499 0.063740626 -0.090903915 -0.1638576 -0.19864716 0.12401304
0.08903651 0.23773636 0.0032967497 0.0014122713 0.0563957 -0.104352705 0.084396645 0.0703482
-0.017621195 0.15223111 0.16199587 0.15737233 -0.09985798 0.02639851 0.02261351 0.012557674
0.002292428 -0.1257811 0.16897315 -0.12893663 0.0764437 0.10756556 -0.07043835 -0.10890607
-0.0930379 0.05953275 0.029162252 -0.078340314 -0.100582816 0.16076483 -0.124881156 -0.023340026
0.016178554 -0.059879985 -0.12956358 0.16248207 -0.252928 -0.013160169 -0.3617898 -0.06626769
0.12732759 0.008689589 -0.025494652 -0.15517668 -0.107946314 0.052153528 0.040382978 -0.16868502
-0.248428 -0.14816025 -0.042519264 0.12020861 0.10341841 -0.061864484 0.1432159 -0.01077395
-0.029086782 -0.04024837 0.15215085 -0.05328408 -0.067334004 -0.0077921594 0.058485422 0.15144254
0.017702807 -0.2580058 -0.24526791 -0.1814493 -0.21024072 -0.1160358 -0.0062687374 0.04118912
-0.22293247 -0.05304992 -0.29997844 -0.14788887 0.01123374 0.06708123 0.050420888 0.04674849
-0.054417178 -0.024026282 0.06276708 0.06353985 -0.04764025 -0.0026764553 -0.111151315 -0.032201566
0.05826354 -0.014665003 0.08486854 0.19130819 -0.036880866 -0.10267489 -0.30238327 0.13017614
-0.14672813 0.16605127 -0.04011631 0.11672499 0.12068416 -0.097080044 0.1223845 -0.04264646

local_net.conv1.bias f4 [16]
00000000: c4c9 0a3d b40f cfbb b1a5 85bc e4e4 8b3b
00000010: 0b67 08bc de1c f8b9 646a 313c e2ac bcbb
00000020: 6b8f bd3c 1ca7 e1bb c876 5dbc 98f2 8abc
00000030: 52f8 94bc 1a72 28bc 107d c739 d6fe 96bc
0.033883825 -0.0063190106 -0.01631436 0.0042692292 -0.008325349 -0.00047323754 0.010828588 -0.005757914
0.023139676 -0.006886376 -0.013517089 -0.01696138 -0.018184815 -0.01028111 0.00038049417 -0.018432062

local_net.mul_blocks.0.gamma_1 f4 [1, 16, 1, 1]
00000000: e8bd 8937 060a 92bc c786 da39 66ef 10bb
00000010: ddb6 11b4 8f8f 7839 4cc2 4d37 662f c23c
00000020: 06db 84bc fb66 c83b 34df 92bc 9236 51bb
00000030: 8d9d 393c e76f 0a34 9c74 8ebc 7a7a 2d3d
1.6420105e-05 -0.017827045 0.00041680617 -0.002211535 -1.3570703e-07 0.00023704603 1.226419e-05 0.023704242
-0.01621772 0.006115792 -0.017928697 -0.0031923396 0.011329067 1.2892961e-07 -0.017389588 0.04235313

local_net.mul_blocks.0.gamma_2 f4 [1, 16, 1, 1]
00000000: bf39 0c38 7c6f bd3c 0ec0 8439 3454 40b3
00000010: 16de 74b5 77ed 0bb6 6663 33ba 23c3 da3c
00000020: 7a63 aa3c 4e61 7d36 f75c 6b3c d4c5 85b7
00000030: c2fd 79bc 13da bdb5 4a0e 1bbc dfef 83bd
3.343238e-05 0.023124449 0.00025320094 -4.4780066e-08 -9.122026e-07 -2.0850837e-06 -0.00068431196 0.026704377
0.020799387 3.7756577e-06 0.014365426 -1.5946956e-05 -0.0152582545 -1.4145065e-06 -0.009463856 -0.06442236

local_net.mul_blocks.0.pos_embed.weight f4 [16, 1, 3, 3]
00000000: 746a 86ba 0ee2 8d3c 85e3 453d 4998 c73c
00000010: d52d 9d3d ffa5 92bd fb5d f53b e2bf 47bc
00000020: f385 58bb 7b8d 47be a5e9 ddbe dc83 343c
00000030: 820e 21be 881c 383d 4806 d33e 7e98 9abe
00000040: 2c7e eb3d de98 30be 28cf 40bd 1488 a53c
00000050: a11a acbd b674 c1ba 36bb 713c 37bf 453b
00000060: f0c2 9bbb 2e22 8c3c 18ed 08bb 6c5a a1be
00000070: 4f97 0a3f cb39 c43e 3e2f 2bbe ce3d b3be
00000080: 558d 4f3d de37 5b3f ec03 093e 44c8 623e
00000090: 7af4 11bc 3f08 993d 052c ddbb f5c9 903d
000000a0: 2233 933c 62be 403c f45d 6dbb 72bb 46ba
000000b0: 46af 473b c83a 993e c2b1 c5be fa9e 843e
000000c0: 287d a4be 4c5e 41be c4ce 39be 6942 4f3d
000000d0: b258 0d3c 37ea 38be 0ca8 e13b 4a22 a1ba
000000e0: 6489 233d 9969 a4bb 012e 393c 0fd2 493e
000000f0: 2149 8cbc f8ff 223c 9b8f 24ba 2923 c23d
00000100: 6353 0a3e edc7 803c dff9 1fbe be30 6fbe
00000110: 58d9 2d3e 1907 1d3e d4d6 f4be c7bf 1dbb
00000120: 88a8 b53a 1fb5 223e fc30 0d3e 4940 82be
00000130: 2b71 533e 9613 f93c 9565 6dbc 12ce 29be
00000140: 91c4 87be 05a3 ac3e ed68 0a3e 819a 94bd
00000150: 0196 95be 9577 883e ef40 903e e8ce 7bbe
00000160: 5408 dd3e 0bf4 183e 1cb8 f5bd f937 dd3c
00000170: 9f93 0bbd 24ec 7c3e 0020 783e 9092 1a3e
00000180: 5115 27bf ccc0 77be 1af0 0cbf b186 fdbc
00000190: ab53 60be b3da 77bd 7fe7 87bd 884a bc3e
000001a0: 026d ccbd 8b1a 0c3e 0d39 65bd 741a 483d
000001b0: 4c5d 043f 33c8 1ebe 55d1 933e 0355 29bd
000001c0: 7d80 0c3f 526d d6be 54db afbd ddb8 d8bc
000001d0: 71c6 503e 2ab7 aa3a 7dcc 513c 45ae be3c
000001e0: beca e43b e4b5 0bbf 802c b03b f7c6 8e3c
000001f0: e7d5 0a3b 7d51 dbbd 3ebc c1be 249a 13bf
00000200: 2697 ed3a e6fa b73e f1ef 24bd 2e29 52bf
00000210: 9b9d 9dbe d397 a73d 36d6 153f 00bd d2bd
00000220: 1cbe a63e 75d4 78be 38b0 ad3e ef7b 6c3a
00000230: 8645 8cbe ab32 a23e 1d54 e2bd ec55 023c
-0.0010255114 0.017319705 0.048312683 0.024364607 0.076747574 -0.071605675 0.00748801 -0.0121917445
-0.0033038824 -0.19487564 -0.4334232 0.011017766 -0.1572819 0.044949085 0.4121573 -0.30194467
0.11498675 -0.17245814 -0.04707256 0.020206489 -0.084035166 -0.0014759514 0.014754107 0.0030173787
-0.004753463 0.017106142 -0.0020893272 -0.315143 0.5413713 0.38325343 -0.1671724 -0.3500809
0.050671894 0.8563212 0.13380402 0.22146708 -0.008908385 0.07472276 -0.0067496323 0.0706977
0.017968718 0.011764141 -0.003621933 -0.0007581032 0.0030469461 0.2992766 -0.3861218 0.2590254
-0.32126737 -0.18883628 -0.18145281 0.050600443 0.008627104 -0.18058096 0.006886488 -0.0012293544
0.039925948 -0.005017471 0.011302472 0.19709037 -0.017124714 0.009948723 -0.00062775024 0.094793625
0.13508372 0.015720332 -0.15622662 -0.23358437 0.16977441 0.15334739 -0.4782015 -0.0024070607
0.001385943 0.15889405 0.13788217 -0.2543967 0.20648639 0.030404847 -0.014489551 -0.16582516
-0.26517156 0.33718124 0.13516589 -0.07256032 -0.29216006 0.26653734 0.2817454 -0.24590647
0.43170416 0.14936845 -0.11998007 0.027004229 -0.03407633 0.24699455 0.24230957 0.15094972
-0.652669 -0.2419464 -0.55053866 -0.030948015 -0.21906917 -0.060511302 -0.06635951 0.36775613
-0.09981729 0.13682 -0.05596261 0.048853353 0.5170486 -0.15506057 0.28870645 -0.04134084
0.5488356 -0.4188028 -0.085867554 -0.026455337 0.203882 0.0013024558 0.012805101 0.023276458
0.0069821766 -0.5457442 0.0053763986 0.017428858 0.0021184625 -0.10708902 -0.3783893 -0.57657075
0.0018126711 0.35933608 -0.04026789 -0.82094085 -0.30784306 0.08183255 0.58529985 -0.10289955
0.32566917 -0.24299796 0.33923507 0.0009021153 -0.27396792 0.31679282 -0.110511996 0.007955056

local_net.mul_blocks.0.pos_embed.bias f4 [16]
00000000: 6e19 1ebe 4f7d 9ebc ed2f d1b9 3f25 abbc
00000010: a674 22bc fe72 a33c cf38 4ebd 31c3 06bd
00000020: 6e3d 2e3d 876a 253c f930 7bbc 20a2 b33c
00000030: a4fa da3c c420 d83c 1d45 8bbc 0af9 19bd
-0.15439388 -0.019346861 -0.00039899294 -0.020891784 -0.0099155065 0.019952293 -0.050347146 -0.032900993
0.042539053 0.010096199 -0.0153315 0.021927893 0.026730843 0.026382811 -0.01700073 -0.037591018

local_net.mul_blocks.0.norm1.alpha f4 [1, 1, 16]
00000000: 2768 243e 9dda 223e 73d5 223e 72b0 2d3e
00000010: 31d8 223e 66d0 223e 79e7 223e d2d6 223e
00000020: a3d2 223e d8fe 233e 38e1 223e e2f8 223e
00000030: e111 273e cce7 223e 5cd8 223e 7bbb 223e
0.16055356 0.15903707 0.15901737 0.1696184 0.15902783 0.1589981 0.15908612 0.1590226
0.15900664 0.16015184 0.15906227 0.15915254 0.16315414 0.15908736 0.15902847 0.1589183

local_net.mul_blocks.0.norm1.beta f4 [1, 1, 16]
00000000: 4767 82af 81ed ca2c a339 5b2c a5e0 7030
00000010: 6ef4 732c f2e6 0fad 5d5f 0a2d c0d4 bc30
00000020: 6807 f3ac 638d 84ac 8316 53b2 96a9 212a
00000030: d388 582c 0aea 0b34 5edf 802c 666e 542d
-2.3720245e-10 5.7675535e-12 3.1153767e-12 8.763073e-10 3.4668063e-12 -8.179889e-12 7.865567e-12 1.3739268e-09
-6.9072977e-12 -3.7673627e-12 -1.2286935e-08 1.435851e-13 3.0771399e-12 1.3030527e-07 3.6627775e-12 1.2075318e-11

local_net.mul_blocks.0.norm1.color f4 [16, 16]
00000000: b740 243e 0b95 80ab 3be4 66ab dbe5 13ac
00000010: d6de 3faa 82e6 5a2a 38fb b9ab d15c b5aa
00000020: ed08 502b c122 98ab d238 55ab 8ab5 7daa
00000030: 212b c0a8 205b 572b 4f70 81ab 64f0 aa2b
00000040: 46eb 862a 8fda 223e 38fa df28 7fb8 862a
00000050: 3ebe 0029 8eaa a8a9 9e04 df29 39dc be29
00000060: 7526 9aa9 e7ea fda9 e4cb 1029 8e12 a327
00000070: 140c 55a9 e519 61a9 2cbe 4429 cb15 d529
00000080: b75a ab2a 31f8 6329 aad6 223e 5a55 5d2a
00000090: f5fb 1329 5d0c dca9 f01a 022a 8665 e029
000000a0: c8c7 a5a9 060a 2baa d16b 2a29 22eb 1128
000000b0: 4106 b8a9 fc74 7ca9 0e61 6029 b58f 0e2a
000000c0: 4bb7 fbaf d607 0cae 230f 3bae 3793 2d3e
000000d0: f0aa be2e 520b c8ae 687f 322f 30bc 812f
000000e0: a75b 47af f252 2f30 2add 28ae 6651 77ae
000000f0: fce2 d42e bfae a3ae 564b aaac f5b1 b1af
00000100: 5eca 292b 4645 8229 1213 5c29 b8db 6faa
00000110: 7dd8 223e f24d 14aa bbda 2f2a 28f7 182a
00000120: f3cc afa9 0eab baaa 75db 5029 a930 cc28
00000130: 87a8 09aa 8d30 a1a9 c0ac 8629 fa66 a22a
00000140: c917 27ab d1ec eda9 31f9 baa9 b519 d4aa
00000150: b434 b0a9 afd4 223e dcae 96aa 8f38 81aa
00000160: 3401 272a e7a3 b32a 5a09 bda9 bee3 38a9
00000170: 6ea8 062a 1772 142a d678 ffa9 2870 8aaa
00000180: 3ca8 1c2a fec6 022a 9964 102a c80f f62a
00000190: f5a9 1229 bfe0 eda9 4beb 223e 81a2 d429
000001a0: b172 b2a9 e1bb cba9 a950 e129 6e48 8329
000001b0: d64e 9ca9 6ba0 d9a9 a118 fe29 1ede 9829
000001c0: 927b f52e d15b 632d 389a 482d 5fa8 98ad
000001d0: 81d3 312d 8abd dfad 2dbd 172e 43da 223e
000001e0: ce07 9cad ad7b 7aae 9c72 3f2d 7a5f 822c
000001f0: a7ea 99ad 9cd1 93ad a0c6 6e2d 87a7 652e
00000200: a5b4 1eab 5b3b d8a9 067d c4a9 b0fd 56aa
00000210: e1c2 8da9 2b3c 372a 6a57 88aa e10b 4baa
00000220: 95d5 223e cd7b 9f2a 1a7d b1a9 f721 33a9
00000230: 96f3 ee29 b3d7 fe29 775f e4a9 aec8 80aa
00000240: dda2 8aaa 69d0 30a9 f235 a4a9 3b4d 9029
00000250: 6c87 8829 35f3 2b29 774c 2d2a eb04 c929
00000260: 9257 1baa 20d6 233e 7ab6 49a9 c731 6ba9
00000270: 4a7e 5627 1415 aca9 df76 20a8 0d0c b7aa
00000280: 6ccc 1d32 848b faaf f2e1 5caf 0932 40b1
00000290: bc56 f9af c615 4bb0 d101 feb0 4a6e e4ae
000002a0: 9872 0331 f57d 93b1 bedd 223e 7255 1430
000002b0: e72c 49b0 692d c030 9394 59b0 6088 b231
000002c0: 7d1f af2a e33d f528 8b5c c828 2c3b c7aa
000002d0: cb9f b228 2ebb 8fa9 770e 9e29 2eb8 8829
000002e0: 3034 30a9 bdc6 66aa 4cd0 c328 befe 223e
000002f0: 5028 90a9 7357 10a9 65bc f928 1dd2 392a
00000300: 5ac9 a2ac 26ad 862a bdeb 8ca8 8c6c fa2b
00000310: 4d33 8d2a cb9d d92a a81f c22b 30b3 f829
00000320: 256e 9fab 7bf5 562c 7bd1 ca29 8e9e 94aa
00000330: 5ebe 263e 9ff5 79ab 92b0 fa2a 1648 5bac
00000340: bf43 f8b3 cbb1 7e32 e101 a131 504d 5133
00000350: 4ef0 d7b1 be1f 1f33 8949 9fb2 e4ef 08b3
00000360: 95c6 b4b1 b109 5033 45e4 5932 d255 2eb2
00000370: ae04 e132 0fe4 223e 8dc0 4332 5962 71b3
00000380: 4632 992a dc7b 9129 d430 6f29 3bf9 f529
00000390: 09d9 3b29 d1d3 e8a9 ed3b 3a2a 4fbf 042a
000003a0: 7f7c afa9 6913 02aa f218 6929 036a 1c29
000003b0: 0c57 a5a9 4322 aca9 84d9 223e 9f70 f929
000003c0: a1af 872b 7894 112a fa73 e629 e737 422a
000003d0: 9f03 cb29 7fe9 8aaa 6c5b af2a 13d7 972a
000003e0: a9ec 51aa 69fd a7aa 312c e729 b9f9 0729
000003f0: e1f0 39aa 4f69 2faa 9e66 182a 3fbd 223e
0.16040312 -9.136315e-13 -8.202915e-13 -2.1017552e-12 -1.704152e-13 1.9442263e-13 -1.3214768e-12 -3.2216463e-13
7.390883e-13 -1.0809896e-12 -7.5751655e-13 -2.2533898e-13 -2.1334986e-14 7.6509805e-13 -9.197173e-13 1.2145948e-12
2.3966435e-13 0.15903686 2.4866489e-14 2.3931202e-13 2.8586718e-14 -7.490285e-14 9.90399e-14 8.4758975e-14
-6.845645e-14 -1.1276206e-13 3.215127e-14 4.5261705e-15 -4.7305977e-14 -4.9982496e-14 4.368569e-14 9.4628806e-14
3.0438648e-13 5.0619397e-14 0.159022 1.9658355e-13 3.2859095e-14 -9.772107e-14 1.1555665e-13 9.96521e-14
-7.3621285e-14 -1.5191329e-13 3.78411e-14 8.100103e-15 -8.1723263e-14 -5.6056708e-14 4.9822173e-14 1.2661992e-13
-4.5786872e-10 -3.1839274e-11 -4.253232e-11 0.1695069 8.670564e-11 -9.096958e-11 1.623427e-10 2.3598679e-10
-1.8131506e-10 6.37825e-10 -3.839521e-11 -5.6233594e-11 9.6809644e-11 -7.443423e-11 -4.8400546e-12 -3.2322559e-10
6.03217e-13 5.785177e-14 4.8866354e-14 -2.1303694e-13 0.15902896 -1.3172083e-13 1.561901e-13 1.3586062e-13
-7.807114e-14 -3.315893e-13 4.6375626e-14 2.2669653e-14 -1.2226514e-13 -7.1582585e-14 5.980763e-14 2.8848435e-13
-5.9363327e-13 -1.05659954e-13 -8.303287e-14 -3.7676603e-13 -7.8251126e-14 0.15901445 -2.6766686e-13 -2.2954249e-13
1.4832997e-13 3.1910518e-13 -8.394908e-14 -4.1053742e-14 1.1960027e-13 1.3184623e-13 -1.13452365e-13 -2.4591548e-13
1.3913951e-13 1.1615359e-13 1.2824671e-13 4.370933e-13 3.2565927e-14 -1.05639015e-13 0.1591007 9.442881e-14
-7.924684e-14 -9.047603e-14 1.00059995e-13 5.830133e-14 -6.9414675e-14 -9.664564e-14 1.12841384e-13 6.788687e-14
1.11632606e-10 1.2923843e-11 1.1402927e-11 -1.7355171e-11 1.01082484e-11 -2.5436337e-11 3.4501447e-11 0.15903573
-1.7738613e-11 -5.6953265e-11 1.0882541e-11 3.7054223e-12 -1.7498293e-11 -1.680505e-11 1.3572837e-11 5.2217366e-11
-5.638357e-13 -9.6026235e-14 -8.7258366e-14 -1.9095034e-13 -6.295464e-14 1.627454e-13 -2.421911e-13 -1.8034143e-13
0.15901788 2.8329978e-13 -7.882081e-14 -3.9775444e-14 1.06115786e-13 1.1317284e-13 -1.01417945e-13 -2.2876617e-13
-2.4626733e-13 -3.9260617e-14 -7.292421e-14 6.408282e-14 6.063105e-14 3.8180576e-14 1.5392016e-13 8.927046e-14
-1.3797148e-13 0.15999651 -4.478924e-14 -5.2223657e-14 2.9766927e-15 -7.641991e-14 -8.90756e-15 -3.2515692e-13
9.185083e-09 -4.5573867e-10 -2.0089155e-10 -2.796812e-09 -4.5354465e-10 -7.388191e-10 -1.8481449e-09 -1.0387831e-10
1.9128148e-09 -4.2925827e-09 0.159049 5.396351e-10 -7.3187184e-10 1.3982745e-09 -7.9155277e-10 5.195986e-09
3.1108094e-13 2.7227303e-14 2.2244595e-14 -3.539056e-13 1.9831269e-14 -6.382946e-14 7.019119e-14 6.071563e-14
-3.9125116e-14 -2.0497055e-13 2.1739683e-14 0.15917489 -6.401878e-14 -3.2050273e-14 2.7726256e-14 1.6504198e-13
-4.6266714e-12 2.3923328e-13 -1.5645358e-14 1.7793696e-12 2.5082229e-13 3.8656434e-13 1.3793315e-12 1.10444965e-13
-1.1328201e-12 3.0547498e-12 9.006941e-14 -2.64001e-13 0.16283557 -8.880344e-13 4.453144e-13 -3.1161788e-12
-1.1560723e-07 1.4825171e-08 4.6859303e-09 4.873192e-08 -6.284643e-09 3.704894e-08 -1.8543476e-08 -3.1883147e-08
-5.2612656e-09 4.8437588e-08 1.2682965e-08 -1.0147646e-08 2.6195575e-08 0.1590731 1.1394275e-08 -5.6201632e-08
2.7213144e-13 6.46078e-14 5.3111012e-14 1.092342e-13 4.171059e-14 -1.0339614e-13 1.654091e-13 1.1790329e-13
-7.793158e-14 -1.1553054e-13 5.175803e-14 3.473091e-14 -7.342572e-14 -7.644278e-14 0.15903288 1.1077358e-13
9.641074e-13 1.2930098e-13 1.02341706e-13 1.7250056e-13 9.015639e-14 -2.4675745e-13 3.1149681e-13 2.6972226e-13
-1.8645037e-13 -2.9840998e-13 1.0266127e-13 3.019262e-14 -1.6514872e-13 -1.5579659e-13 1.3535914e-13 0.15892504

local_net.mul_blocks.0.conv1.bias f4 [16]
00000000: 5ea6 78b7 4b10 622d 12c0 cb36 6219 aeb2
00000010: 950b cd30 8c49 b12d 3668 5439 a963 ff2e
00000020: bf1b a333 15e3 2d36 cab7 869c 0212 99b6
00000030: 43e9 f92c 3398 b0aa 1771 b327 97cf 70a4
-1.4820687e-05 1.285023e-11 6.0722314e-06 -2.0267809e-08 1.4919005e-09 2.0155232e-11 0.00020256717 1.16137606e-10
7.595326e-08 2.5911188e-06 -8.914885e-22 -4.5618517e-06 7.102903e-12 -3.136949e-13 4.9805093e-15 -5.221754e-17

local_net.mul_blocks.0.conv2.bias f4 [16]
00000000: 1a62 18b6 5370 883c 78c5 e5b9 ea14 113b
00000010: d001 0233 caae 8339 768d 28b7 2403 f2bc
00000020: c90f 9bbc 402a c23b 7fea 7a3c a51f 19bb
00000030: c44c 803c bb82 1c34 64e4 513c 2097 20bd
-2.2706868e-06 0.016655123 -0.0004382541 0.002213771 3.0269632e-08 0.00025116495 -1.0046517e-05 -0.029542513
-0.018928425 0.0059254467 0.015314697 -0.002336481 0.015661605 1.4576192e-07 0.0128108 -0.039206624

local_net.mul_blocks.0.attn.bias f4 [16]
00000000: 5503 4fbc c4ae 5fb0 e505 32ba 52f3 123c
00000010: 7df0 fdb8 4eba 32bb 6b42 063c bc7b c430
00000020: eb52 e53a 3c14 9a3c 83f4 bcb8 2dac 9d3c
00000030: cda2 8f36 0a95 8a3a a818 89b1 16ce 09b0
-0.012635072 -8.1375284e-10 -0.00067910395 0.008969145 -0.000121087745 -0.002727169 0.008194546 1.4296044e-09
0.0017496025 0.018808477 -9.0100824e-05 0.019247139 4.2806846e-06 0.0010572982 -3.990028e-09 -5.0133175e-10

local_net.mul_blocks.0.norm2.alpha f4 [1, 1, 16]
00000000: 7356 233e 54d4 223e c9d8 223e fa6d 253e
00000010: 11c5 223e d5eb 223e 7b15 233e bff7 223e
00000020: 9edc 223e 6b1c 233e a0d0 223e 55de 223e
00000030: a4eb 223e cff6 223e d6d9 223e 719b 263e
0.15950947 0.15901309 0.1590301 0.16155234 0.15895487 0.15910275 0.15926163 0.1591482
0.15904471 0.1592881 0.15899897 0.15905125 0.15910202 0.15914463 0.1590341 0.16270234

local_net.mul_blocks.0.norm2.beta f4 [1, 1, 16]
00000000: 6701 9238 a6f6 1339 7218 8338 dbd1 163a
00000010: b7ea c038 f246 67b8 3dd7 3638 3680 b738
00000020: 8f8f 13b9 60f1 c6b7 edc4 1d39 2fd0 4eb7
00000030: 1675 aeb7 75d5 9cb8 c18d f13a 354a 4538
6.962084e-05 0.00014110896 6.25112e-05 0.0005753317 9.1989925e-05 -5.5140765e-05 4.3592638e-05 8.750001e-05
-0.00014072492 -2.3715838e-05 0.00015046047 -1.2327028e-05 -2.0796939e-05 -7.478419e-05 0.0018429087 4.703757e-05

local_net.mul_blocks.0.norm2.color f4 [16, 16]
00000000: 8a40 233e 5af7 abb5 26bc 81b5 2301 16b7
00000010: 3062 99b5 206d 57b6 434d cab5 3beb a935
00000020: 712c 8936 b159 65b7 a1b8 22b5 9240 e335
00000030: cfa8 69b6 ee7b 4636 9b5a e3b5 19eb 8237
00000040: d7c4 3336 80d6 223e 7813 7134 d905 12b4
00000050: 343e b934 9941 02b5 dfea 7335 5126 7135
00000060: 128b 53b5 b837 00b5 4649 b234 27a4 6cb4
00000070: 2d49 0334 11d3 1fb5 5a75 c434 14b9 8635
00000080: bfe9 8936 fbe7 5135 e9d8 223e bc6d 1035
00000090: 69db db34 d22a bbb4 b631 bd35 57f6 3235
000000a0: 20d1 77b5 0747 0cb6 bc53 3035 889f 8534
000000b0: f2bc 08b5 4676 67b5 b474 5335 1dbe 2036
000000c0: 0954 20b8 075f 78b7 5bc0 01b8 656d 253e
000000d0: 42af 83b7 03c0 0938 87f8 39b8 7e67 24b8
000000e0: 8eed 7637 a587 2138 2d61 08b7 82cf aab7
000000f0: 03c3 b337 7ea3 ca37 d29c a2b7 f57a 0ab8
00000100: 20ac d735 5ad7 2734 5323 bc33 7a39 8735
00000110: 20c6 223e ff75 a2b4 ca59 0735 a29e 1a35
00000120: 1672 f2b4 8b9a ecb3 e993 2734 45b1 2bb4
00000130: 39d3 4634 0cb8 b1b4 ea61 3e34 e5da 0335
00000140: f04a 15b5 cacf 35b5 b284 62b5 2406 a836
00000150: b5d7 9534 71e7 223e 5e37 3cb5 6057 8935
00000160: 556c 3933 2800 4c36 0a90 35b5 3eb8 ecb4
00000170: 4687 6835 fcb4 9334 0c76 3fb5 7615 fbb5
00000180: 7602 8d36 d652 02b5 07f3 25b3 5261 38b5
00000190: b348 fd34 6447 0cb6 1309 233e 49cb 0936
000001a0: 4b6c 0434 b7af e1b5 b885 1bb5 379e 2935
000001b0: c07c aab5 340d 8eb3 d957 9fb4 0cb5 0c36
000001c0: f640 6136 f123 b134 655b f334 edd8 2736
000001d0: d6db a3b4 0d19 c933 0587 0fb4 bbec 223e
000001e0: 6dcf f833 1f01 19b6 442c db34 5be0 fc33
000001f0: bf19 34b5 6215 8931 8cab 9c34 0cc9 fd35
00000200: d483 1f36 1558 8534 fb1b ba34 6364 f1b6
00000210: fd05 2b34 fa47 ddb4 6487 3135 e2ed f134
00000220: 88dd 223e 64ad bbb5 5496 1234 48e3 e434
00000230: 3967 3eb5 4949 57b4 c605 9434 7b8d e235
00000240: 8567 87b7 7595 73b3 e839 1734 fee1 1637
00000250: 87cd 5035 ed0d a535 6042 b835 2ec1 3635
00000260: bde7 07b6 6d1e 233e c52e abb4 4690 9db5
00000270: 68e9 1236 75b7 9fb5 c7d0 a834 89fb 1bb7
00000280: 2a0e 9736 e6c4 3235 af56 1135 6a27 7636
00000290: aaf9 1235 1d52 8eb5 3a8f f235 7c83 c335
000002a0: a989 9ab5 954f 23b6 b7d1 223e b5fe 9332
000002b0: a72f f3b4 cdac 81b5 e48c 3d35 4913 1236
000002c0: e61d 9536 e836 0c35 98bb 2535 a1ff 8eb6
000002d0: 8b63 d4b4 c692 aeb4 6940 5eb4 4cf9 7ab5
000002e0: aaf0 e4b1 23c2 a1b6 c8aa 0f35 93d8 223e
000002f0: 7cab 7cb5 2439 22b4 ce3b ad34 52ec 3a36
00000300: 1844 b934 8cae 3cb5 35fc ffb4 5bdc 1c37
00000310: a940 1132 f9fc 73b5 530e 0634 b317 7535
00000320: 029a ef33 8145 3436 5af2 22b5 91dc e1b4
00000330: 86e8 223e a33d b734 f872 23b5 a673 b8b4
00000340: 2853 80b5 3441 8eb3 3aa7 12b4 94cd 84b6
00000350: 820a a3b2 5683 7134 a219 a4b3 0cee 5eb4
00000360: 363f 6b33 ed53 09b5 4b11 11b4 e42f 1233
00000370: 7a4d 2134 a4e4 223e 59d3 45b3 28d5 20b4
00000380: d39b eab5 6831 1cb6 0c1d 57b6 3169 bf36
00000390: a3b8 c6b5 5dfd e135 e2b0 56b6 01fd fdb5
000003a0: 1802 9035 451b 3a36 7596 deb5 8383 cdb5
000003b0: a203 a735 7d39 2a36 00ec 223e fa28 d1b5
000003c0: 9637 2437 525c 72b5 457a 0533 34da 82b6
000003d0: 97f8 8a35 c5f4 93b6 3cf0 4a36 ce5e 9236
000003e0: 0cb4 8c33 c7b5 9cb6 f0c5 a6b5 37dd af35
000003f0: 79e4 32b6 7ef2 a2b4 6a21 18b5 821c 263e
0.15942588 -1.2812482e-06 -9.666007e-07 -8.940961e-06 -1.1427965e-06 -3.2101016e-06 -1.5072659e-06 1.2659942e-06
4.088092e-06 -1.3670347e-05 -6.0618373e-07 1.693161e-06 -3.4817965e-06 2.9576436e-06 -1.6939188e-06 1.5606684e-05
2.6787654e-06 0.15902138 2.2451957e-07 -1.3599437e-07 3.4504194e-07 -4.852423e-07 9.0866337e-07 8.9835254e-07
-7.8806e-07 -4.77648e-07 3.3208397e-07 -2.2038931e-07 1.2226947e-07 -5.953926e-07 3.659323e-07 1.0037643e-06
4.11013e-06 7.8196143e-07 0.15903057 5.3803865e-07 4.095157e-07 -3.486262e-07 1.4096065e-06 6.666864e-07
-9.231899e-07 -2.090297e-06 6.568696e-07 2.4889255e-07 -5.09389e-07 -8.6226316e-07 7.877345e-07 2.3952518e-06
-3.8225236e-05 -1.4804077e-05 -3.093514e-05 0.16155012 -1.5698028e-05 3.284217e-05 -4.4338896e-05 -3.919703e-05
1.4718053e-05 3.851172e-05 -8.128857e-06 -2.0362208e-05 2.1429272e-05 2.4156408e-05 -1.938493e-05 -3.3016277e-05
1.6068843e-06 1.5631431e-07 8.7608576e-08 1.0075012e-06 0.15895891 -3.0260705e-07 5.042208e-07 5.760031e-07
-4.515902e-07 -1.10177176e-07 1.5606896e-07 -1.5990106e-07 1.851703e-07 -3.310273e-07 1.773075e-07 4.9119836e-07
-5.5615874e-07 -6.773013e-07 -8.438466e-07 5.007505e-06 2.791036e-07 0.159086 -7.011603e-07 1.0232725e-06
4.3172196e-08 3.039846e-06 -6.763736e-07 -4.409248e-07 8.6623584e-07 2.7512567e-07 -7.1324826e-07 -1.8707203e-06
4.202414e-06 -4.8549316e-07 -3.863809e-08 -6.868696e-07 4.7177818e-07 -2.090318e-06 0.1592143 2.0532918e-06
1.2332855e-07 -1.6814946e-06 -5.7936586e-07 6.318764e-07 -1.2702294e-06 -6.614792e-08 -2.9679975e-07 2.0967009e-06
3.3565425e-06 3.299497e-07 4.5328775e-07 2.5011207e-06 -3.0521068e-07 9.3643486e-08 -1.3367033e-07 0.15910618
1.15861305e-07 -2.279943e-06 4.0824136e-07 1.17754745e-07 -6.709269e-07 3.9896557e-09 2.918208e-07 1.8908481e-06
2.376958e-06 2.483727e-07 3.4665558e-07 -7.1940462e-06 1.5927795e-07 -4.1216828e-07 6.613466e-07 4.506283e-07
0.1590482 -1.3983049e-06 1.3651999e-07 4.2633678e-07 -7.0930724e-07 -2.0050096e-07 2.757135e-07 1.6879488e-06
-1.614146e-05 -5.6713777e-08 1.4084037e-07 8.993315e-06 7.778512e-07 1.2297511e-06 1.3728386e-06 6.8081397e-07
-2.0251457e-06 0.15929575 -3.188526e-07 -1.1739401e-06 2.1891556e-06 -1.1899816e-06 3.1444344e-07 -9.297285e-06
4.5017996e-06 6.659669e-07 5.414285e-07 3.6679799e-06 5.475255e-07 -1.0603723e-06 1.807209e-06 1.4566899e-06
-1.1513958e-06 -2.4335216e-06 0.15900312 1.722888e-08 -4.529695e-07 -9.661541e-07 7.061301e-07 2.176692e-06
4.4440267e-06 5.2233963e-07 6.1740275e-07 -4.261689e-06 -3.9560504e-07 -3.2516817e-07 -2.0698793e-07 -9.349503e-07
-6.6630337e-09 -4.8207744e-06 5.352017e-07 0.15902929 -9.412686e-07 -1.5108213e-07 3.2267275e-07 2.7853716e-06
3.450848e-07 -7.0289457e-07 -4.7680956e-07 9.34963e-06 8.454813e-09 -9.089268e-07 1.2484934e-07 9.13041e-07
1.11573186e-07 2.6862547e-06 -6.070237e-07 -4.207e-07 0.15909013 3.4131253e-07 -6.0889533e-07 -3.4356816e-07
-9.560945e-07 -6.624251e-08 -1.3658146e-07 -3.957839e-06 -1.8980476e-08 2.2492654e-07 -7.641508e-08 -2.0761962e-07
5.477269e-08 -5.1158605e-07 -1.3510468e-07 3.403683e-08 1.5022479e-07 0.15907532 -4.6059856e-08 -1.4978707e-07
-1.7479709e-06 -2.327457e-06 -3.2054404e-06 5.7044895e-06 -1.4805886e-06 1.6837545e-06 -3.1991444e-06 -1.8923603e-06
1.0729445e-06 2.7732033e-06 -1.6584078e-06 -1.5311965e-06 1.2443527e-06 2.5365437e-06 0.1591034 -1.5583639e-06
9.788104e-06 -9.028637e-07 3.107768e-08 -3.899704e-06 1.035415e-06 -4.4094363e-06 3.024018e-06 4.362176e-06
6.5520084e-08 -4.670324e-06 -1.2425571e-06 1.3102898e-06 -2.6657056e-06 -3.0351288e-07 -5.6673036e-07 0.16221812

local_net.mul_blocks.0.mlp.fc1.bias f4 [64]
00000000: 5e15 ea3b 5d48 b1ab 7490 d638 660b 16b8
00000010: aaf3 903b 7f92 9abc 8042 2d21 f96c 8133
00000020: 381d 28a8 eeb4 2b2c 84e8 373b 29e3 aa39
00000030: 1764 b831 10b4 8336 0a49 4931 e696 6cb9
00000040: 6353 0735 24d2 4cb9 728d 6339 0a2a f7b9
00000050: 1d3a 74bc 4f3d 4b34 4fd4 4dbc cbf6 2eb8
00000060: 62c0 92bb 8acf 0ebd fddd bebb 7423 8339
00000070: c16a 8bb0 3a3c 1a3a a026 2f3a 8a63 122f
00000080: 064d 1b30 df42 ae34 c538 5b39 bc0f 243d
00000090: ee6e 8839 fc4a 03bd 15f4 6433 38e9 58b5
000000a0: 3a05 a598 8026 1f38 e07e 3db7 abd8 2829
000000b0: 72b7 c6b3 7083 72b9 362c 2d3a 81ac f437
000000c0: 4c73 2e35 09d9 533c 4403 60b4 f23a f53b
000000d0: 8da1 86ba 2094 d736 612e f3b8 4863 7537
000000e0: 1921 543b 74fe 403c 013f 1337 025b 943a
000000f0: 9055 ecb2 01e6 d8bc a8a0 eb37 a5fa 45b6
0.0071436604 -1.2596691e-12 0.00010231222 -3.5773402e-05 0.0044235783 -0.018868683 5.870269e-19 6.0268526e-08
-9.332209e-15 2.4400998e-12 0.0028062174 0.00032594174 5.3664837e-09 3.9250663e-06 2.9290868e-09 -0.00022562928
5.041276e-07 -0.0001953324 0.000217011 -0.00047142833 -0.014906433 1.8928152e-07 -0.012562825 -4.1714677e-05
-0.0044785 -0.034865893 -0.005824803 0.00025012682 -1.0143922e-09 0.0005883608 0.0006681476 1.3313986e-10
5.649813e-10 3.245868e-07 0.00020906616 0.040054068 0.0002602259 -0.032053933 5.3307378e-08 -8.080565e-07
-4.2656778e-24 3.794441e-05 -1.1294818e-05 3.7491423e-14 -9.253462e-08 -0.00023127883 0.0006606014 2.9167395e-05
6.498783e-07 0.012930163 -2.0862814e-07 0.0074838335 -0.0010271535 6.4247433e-06 -0.00011595782 1.4626254e-05
0.003236836 0.011779416 8.776552e-06 0.0011318626 -2.7512925e-08 -0.026476862 2.8088994e-05 -2.9501182e-06

local_net.mul_blocks.0.mlp.fc2.bias f4 [16]
00000000: 6d79 3bb6 37a6 92bc 368a 84b9 6608 08b3
00000010: 73b7 e0b6 bcb2 24b8 a99e ce39 8035 f6bc
00000020: e9f8 aa3c c86b f536 7833 67bc 2c7e 14b8
00000030: e66f 95bc 13b4 2e37 e9cd 123c 8f6d 3f3d
-2.793585e-06 -0.017901523 -0.00025279977 -3.1672606e-08 -6.6970765e-06 -3.9267106e-05 0.00039409593 -0.030054808
0.020870643 7.3141164e-06 -0.014111392 -3.5403456e-05 -0.018241834 1.0413135e-05 0.008960226 0.046735343

local_net.mul_blocks.1.gamma_1 f4 [1, 16, 1, 1]
00000000: 6303 3db9 074f 78bc 6d91 f2b7 039c 33bc
00000010: 2531 cf3b f7f1 a6bc eb77 24bc ebd7 c6bc
00000020: b479 9a3c 2985 063b 3bf5 59bb 2f2b 16b3
00000030: 9ed2 95bc a1e1 dabc 4e6e 13bc 2ec2 06bd
-0.00018025706 -0.01515556 -2.8916367e-05 -0.010962489 0.006322997 -0.02037905 -0.010038356 -0.02427288
0.01885686 0.0020526147 -0.003325774 -3.4963872e-08 -0.018288907 -0.026718916 -0.008998467 -0.032900028

local_net.mul_blocks.1.gamma_2 f4 [1, 16, 1, 1]
00000000: 2db8 0b3a 05c4 6938 8918 013b 01fa 5cbc
00000010: 1656 a93b 94e2 85bc 8211 6abc a0d0 a43c
00000020: ae09 ae3c 0342 9f3b ba15 073a d49b 6d34
00000030: a19b c13c 36ce e7bc b2aa 05bc c7df 3bbd
0.00053298735 5.5734086e-05 0.0019698462 -0.01348734 0.005167733 -0.016343392 -0.014286401 0.020119011
0.02124485 0.004860164 0.0005153079 2.2129035e-07 0.02363378 -0.028296571 -0.008158373 -0.045867708

local_net.mul_blocks.1.pos_embed.weight f4 [16, 1, 3, 3]
00000000: 57de d03e 6127 6bbd 4033 463e 63c4 53be
00000010: 37ae 253f f03f 49bf a51c 29bf 7af8 00bf
00000020: ff5f b1bc dc42 2a3e 6d07 2e3e b80f 91bd
00000030: 261a ba3c f9ad 0cbe 7c0e b93e 9946 1d3e
00000040: 7ecc a9bd 745b 723d f3f7 1ebc f66e 403c
00000050: d503 94bb ad21 c1bb 2e2a ea3c 9465 73ba
00000060: a291 b93b ea67 073e 1f29 593a 9ec0 ecbd
00000070: a896 50bd c3a9 173f 6b3f 8dbc f027 b0be
00000080: 7240 32bf a9a0 a63d 7dcf 523e cfbe c2be
00000090: e846 83bd 756c a7be 3cf7 483d 1375 1abe
000000a0: 7c40 943d 9339 533e 4b1c 9abe 8f57 7cbe
000000b0: 281a a6be 618a f6be f6d5 053f 12fc 703e
000000c0: f74c 22bf 3959 163d aa00 da3d 9275 93be
000000d0: bd3a 29be b46c 2fbf 1a89 1b3c f2be 53bd
000000e0: 03fb 6a3d dd77 773c 044e a3bd 50ab 0cbd
000000f0: d008 c9be bf00 b43d 9158 053d 3a17 c33d
00000100: 55d7 0b3e 2eca 3fbe 2855 663e 2516 073e
00000110: 0dd9 c7bc 7088 f63d 2492 073e 4240 24be
00000120: b00c 153f 6936 7bbe a511 1d3d fb4a ebbc
00000130: 08c0 163d 85ae 003e 3753 223d c6ca 53be
00000140: 6da7 b3be ed7e 3fbd 98da f13e 55b5 90bd
00000150: 354c 9fbe 6682 d4be b0ec c13e 1f23 ad3e
00000160: 6554 e53d 398a ccbe 5ef4 603d 2f74 f93d
00000170: 2a5b 4f3d e45a c43e 37d8 333e 39c3 15be
00000180: 9143 073e a661 483e 141c fb3c ba20 fa3c
00000190: d69a 35bc b4cb 89bc 9d10 853d c63f 203c
000001a0: eb68 03bd 00db 713d 7f19 553c d39f 083a
000001b0: 1b5a e83e 8817 51bf 5665 083e 1cc3 86bd
000001c0: 1244 c73d 1684 513f 68a3 13be a590 9fbd
000001d0: 9e69 f7be 2db8 4b3e 05f9 133c 4a9d 14bf
000001e0: 3f29 81bd 5742 00be 7114 08bd 045e 9fbc
000001f0: b8f4 a7bc c091 ccbe 9261 a9bd c487 143d
00000200: 8016 c8bc 9e7d 083e 77b5 03be 5e84 883d
00000210: eb98 8e3b eaba 8e3c 3089 fd3e 184d f63c
00000220: 78fc ac3e 60bc 06be 03f1 223d 2099 1abe
00000230: 48fd 7dbe 6161 60bd 209a b03e d3c3 c1be
0.40794632 -0.0574106 0.19355488 -0.20680384 0.64718956 -0.78613186 -0.66059333 -0.50379145
-0.02165222 0.16627067 0.1699502 -0.07083076 0.022717547 -0.1373824 0.36143863 0.15358962
-0.08290957 0.059169248 -0.00970267 0.011745205 -0.0045170584 -0.005893907 0.028584566 -0.00092848507
0.0056631127 0.13223234 0.00082840206 -0.11560176 -0.050924927 0.5924341 -0.017242154 -0.3440547
-0.69629586 0.08136112 0.20586963 -0.380362 -0.06410009 -0.32699934 0.049063906 -0.15083723
0.07238862 0.20627432 -0.3009971 -0.24642776 -0.3244183 -0.4815245 0.52279603 0.23533657
-0.6339869 0.036706183 0.10644658 -0.28800637 -0.16526313 -0.6852524 0.009493137 -0.05169577
0.05736829 0.015104261 -0.07973865 -0.034343064 -0.39264536 0.08789205 0.032555167 0.095259145
0.13656361 -0.18729469 0.22493422 0.13192041 -0.02439549 0.12037742 0.13239342 -0.16040137
0.58222485 -0.24532475 0.038346905 -0.028722277 0.03680423 0.12566574 0.03963014 -0.2068282
-0.35088673 -0.046751905 0.47237086 -0.07065836 -0.3111283 -0.41505736 0.3787589 0.33815858
0.111977376 -0.39949206 0.054920547 0.121803634 0.05062405 0.38350594 0.17562948 -0.14625253
0.13209368 0.195685 0.030653037 0.030533183 -0.011084279 -0.016820766 0.06497309 0.00978083
-0.03208248 0.059046745 0.013006567 0.0005211804 0.45381245 -0.8167653 0.13319907 -0.06580183
0.0972978 0.8184217 -0.14417803 -0.07791261 -0.48322767 0.19894476 0.009031539 -0.58052504
-0.06306695 -0.12525307 -0.03322262 -0.01945401 -0.020502433 -0.39954948 -0.08270563 0.03626229
-0.024424791 0.13329169 -0.12862192 0.06665872 0.0043517253 0.017423112 0.49518728 0.030066058
0.33786368 -0.13157797 0.039780628 -0.15097475 -0.2480365 -0.054780368 0.34492588 -0.37844715

local_net.mul_blocks.1.pos_embed.bias f4 [16]
00000000: 1d7e 88bb 5a2f 9fbc 66e0 a8b9 01ee b6bc
00000010: a941 ef3c fe93 d9bc 874f 64bd 8d21 08bd
00000020: 1966 173d 2ce5 1f3c c9f5 71bc d7ac d03c
00000030: ab65 d33c d062 14bd a33e 8cbc 57e8 12bd
-0.0041654245 -0.019431759 -0.00032210647 -0.022330286 0.029206114 -0.026559826 -0.055739906 -0.03323512
0.036962602 0.009759229 -0.014768072 0.025473041 0.025805315 -0.036227047 -0.017119711 -0.035866108

local_net.mul_blocks.1.norm1.alpha f4 [1, 1, 16]
00000000: 3ad2 223e 84b5 233e fddb 223e c3db 2c3e
00000010: 9054 233e f6f9 223e f655 233e ce31 233e
00000020: 02ec 223e 11a6 233e 5dd3 223e e64f 233e
00000030: 2e53 243e 67e3 223e bae9 223e 6714 263e
0.15900508 0.15987211 0.15904231 0.16880707 0.15950227 0.15915665 0.1595076 0.15936968
0.15910342 0.15981318 0.15900941 0.15948448 0.16047356 0.1590706 0.15909472 0.1621872

local_net.mul_blocks.1.norm1.beta f4 [1, 1, 16]
00000000: 1d0d ff34 ffa1 1536 febd 5d35 5c36 4434
00000010: 45ed 4db5 1a12 1f36 ebe1 7d35 8d41 fe35
00000020: f946 03b6 eee8 28b5 eab5 1736 c107 4fb5
00000030: 5080 8d38 ab3a 1d36 7d59 0836 7e22 9f36
4.7506992e-07 2.2297024e-06 8.260539e-07 1.8273698e-07 -7.6713724e-07 2.3703383e-06 9.45786e-07 1.8943553e-06
-1.9561833e-06 -6.2923834e-07 2.2606641e-06 -7.712479e-07 6.747304e-05 2.3428972e-06 2.0317668e-06 4.7425847e-06

local_net.mul_blocks.1.norm1.color f4 [16, 16]
00000000: fdd2 223e 77f7 7531 a39e 3531 9ac4 2130
00000010: 200b 3cb1 d580 2b31 2636 e831 d6f6 a231
00000020: 0e4c 99b1 87e4 63af 4044 4631 41df acb0
00000030: 829c 92b1 4dcc 1f31 f6bb 4a31 a067 9b31
00000040: dca4 f630 63f8 233e eb47 1d31 3f08 ff32
00000050: 7de5 cdb1 2e29 d831 6f1d 2b32 7965 ccb2
00000060: 1bcd 38b2 85c0 7a33 4429 0332 54b4 97b1
00000070: bac6 0132 c232 fc31 c926 1b32 3b94 26b3
00000080: cc76 5e30 2d4a 3c31 e1ea 223e 6bde 1b32
00000090: 8cc4 3bb1 d889 0e31 a2da 8f31 490b d6b1
000000a0: 53bd 97b1 4e74 a132 0daf 3731 06a5 ffb0
000000b0: 9f3d 1f2f f071 4531 f301 6131 12a4 5eb2
000000c0: 69fc 9ab1 f72c 4cb3 9364 12b2 4a46 2c3e
000000d0: 5226 8a32 314a 1bb3 1baf a9b3 7506 22b3
000000e0: 77dc 6133 afa7 c632 d708 3db3 4f93 2832
000000f0: ea6d e332 e96b 01b3 897b 36b3 81cd 0db3
00000100: 0d51 e2af efbe 17b1 7d85 e730 48a5 28b2
00000110: d91a 233e e2bd e4b0 2b57 4cb1 e946 0f32
00000120: 79dd 8031 566b a9b2 3398 19b1 f573 0431
00000130: c3f5 35b1 f382 02b1 165e 1db1 bb26 6e32
00000140: 5795 8f31 acea a732 73db 3f32 44ba 6db2
00000150: a3b4 9ab2 b8fe 223e 5298 2533 8e0c e932
00000160: b061 efb2 0b65 06b3 0c1e bd32 9c37 2db2
00000170: 9900 93b2 640f a932 0d20 dc32 dc01 1033
00000180: 112f ceae 123d 3d32 d8c3 9bb1 ec98 9231
00000190: 768f 0731 958c e331 ab44 233e faab 6732
000001a0: affd 6cb2 d061 2f32 c22b 1732 e622 bab1
000001b0: 6a9d 1db2 4f9e 9b31 872b f231 b6d6 0b32
000001c0: 4d98 c3b0 266f 1532 abc4 bbb1 011a 7532
000001d0: 160c d131 887f 5531 14b4 9232 0230 233e
000001e0: 3774 66b2 c560 eb32 7816 cf31 8638 f2b1
000001f0: e1a7 36b2 4f5e 8030 2e2e 2831 ca63 2532
00000200: a7cb 9db0 b832 99b1 cd85 eeb0 4b0c 85b2
00000210: ef29 ab31 f230 60b1 a7f3 20b2 1272 20b2
00000220: 33f0 223e 58ba e8b2 3d0b 72b1 08c1 9c31
00000230: ba79 0b32 7f5a 82b1 55f0 83b1 a9e8 3cb1
00000240: dd61 9931 0d20 9b2f a534 1132 4835 7e33
00000250: a941 cab2 75a8 f831 87f2 42b3 9d32 d3b3
00000260: c347 23b2 42a0 233e b51c 3a32 80e0 59b1
00000270: ea07 2b33 183c b532 55ea 3632 3794 0cb4
00000280: 1660 0331 69d1 6932 aecd 8631 ad2c b932
00000290: fa10 06b2 79c0 2332 e128 b232 2062 2a31
000002a0: aeb0 9db2 88a6 3a33 d1d4 223e fc0c ddb1
000002b0: 0184 2eb2 586b 1632 1f54 4332 ddb4 1db2
000002c0: c5e3 43af 12e5 f6b0 b672 aa30 b4be 8cb2
000002d0: aa11 3aaf 2d3e 41b1 b680 2431 71fe 9432
000002e0: fb8e 4631 33e3 0bb3 14ff 47b1 0065 233e
000002f0: 18ea a9b1 b840 49b1 e337 75b1 a699 d032
00000300: 5d1c f8b2 725d ceb4 634d 5fb4 3655 2c34
00000310: 7bf5 7234 280b bab4 09bb e5b4 03c7 81b4
00000320: 5910 df34 87f6 4e34 14a2 d6b4 ae1c 7e33
00000330: d03b 243e 7db2 b0b4 585c ddb4 25b8 6fb4
00000340: 7dc9 bd31 78d3 ef32 fd1a af32 4b07 8932
00000350: 1fd0 bdb2 4f62 ce32 5677 4033 897e 2432
00000360: 5ca1 0ab3 77b8 0633 7762 e432 724d dfb1
00000370: 392a 91b2 31ea 223e e57a fc32 88dd 0231
00000380: 4aca 0c31 8b54 d331 9f7a e831 624a 50b0
00000390: 32f3 27b2 e514 cb31 87f2 4032 e584 9032
000003a0: ad4f 23b2 b3c5 13b2 841b e731 bf73 93b1
000003b0: 299e 31b2 9ff7 0432 64eb 223e 2607 9c32
000003c0: 8510 0532 d2f1 cf33 c361 9731 551b 3f32
000003d0: 8207 fbb2 ea64 9233 43df 2a34 70bd 3333
000003e0: 16e6 f6b3 8f21 5433 9747 bc33 ba65 fab2
000003f0: 7b36 8eb3 df62 8233 5abc ac33 7ce1 253e
0.15900798 3.579286e-09 2.642914e-09 5.8850846e-10 -2.7363924e-09 2.4957008e-09 6.7582446e-09 4.7428825e-09
-4.4615325e-09 -2.0726719e-10 2.8851588e-09 -1.25781e-09 -4.266952e-09 2.3253677e-09 2.9501712e-09 4.5228745e-09
1.7945712e-09 0.16012721 2.2887388e-09 2.9689657e-08 -5.992375e-09 6.291109e-09 9.960202e-09 -2.379487e-08
-1.0756845e-08 5.8382756e-08 7.634586e-09 -4.4151793e-09 7.5539734e-09 7.3399358e-09 9.031006e-09 -3.87847e-08
8.093195e-10 2.7399765e-09 0.15909912 9.072759e-09 -2.7323805e-09 2.0742075e-09 4.1867034e-09 -6.2295027e-09
-4.416202e-09 1.8795756e-08 2.672951e-09 -1.8600594e-09 1.4482858e-10 2.873204e-09 3.2742917e-09 -1.2959406e-08
-4.5106856e-09 -4.7538347e-08 -8.521186e-09 0.16823688 1.608274e-08 -3.6156226e-08 -7.901527e-08 -3.7724437e-08
5.2587406e-08 2.3126487e-08 -4.401303e-08 9.812381e-09 2.6476261e-08 -3.0133297e-08 -4.248753e-08 -3.3016025e-08
-4.116675e-10 -2.2081925e-09 1.6845402e-09 -9.816468e-09 0.1592821 -1.6643151e-09 -2.9735456e-09 8.339819e-09
3.750469e-09 -1.9723e-08 -2.2350946e-09 1.9274442e-09 -2.6478666e-09 -1.8991926e-09 -2.2899989e-09 1.386223e-08
4.1788257e-09 1.9548075e-08 1.116756e-08 -1.38375675e-08 -1.8010104e-08 0.1591748 3.855559e-08 2.713048e-08
-2.7867685e-08 -3.1291204e-08 2.201616e-08 -1.00825694e-08 -1.7113324e-08 1.9681188e-08 2.5625946e-08 3.3529304e-08
-9.376156e-11 1.1015134e-08 -4.5333586e-09 4.2665445e-09 1.9726634e-09 6.622552e-09 0.15944164 1.3485073e-08
-1.3794689e-08 1.0208581e-08 8.799306e-09 -5.41728e-09 -9.174395e-09 4.5290913e-09 7.0480755e-09 8.1396845e-09
-1.4231404e-09 8.698214e-09 -5.464775e-09 1.42667895e-08 6.0840746e-09 3.1068073e-09 1.7078527e-08 0.15936282
-1.3414186e-08 2.7401606e-08 6.0270473e-09 -7.049553e-09 -1.06319655e-08 9.34003e-10 2.4473468e-09 9.6269535e-09
-1.1481135e-09 -4.458652e-09 -1.7354808e-09 -1.5488828e-08 4.9815223e-09 -3.2624112e-09 -9.368626e-09 -9.339162e-09
0.15911941 -2.7093094e-08 -3.5222023e-09 4.5621427e-09 8.118542e-09 -3.793786e-09 -3.8399244e-09 -2.7489853e-09
4.464012e-09 2.821711e-10 8.452081e-09 5.9187443e-08 -2.3545754e-08 7.2369013e-09 -4.5389722e-08 -9.83466e-08
-9.5041655e-09 0.15979102 1.0833152e-08 -3.170527e-09 3.9821238e-08 2.10985e-08 1.0647075e-08 -1.3092436e-07
1.9117627e-09 1.3609999e-08 3.9232964e-09 2.155715e-08 -7.803687e-09 9.531612e-09 2.0740517e-08 2.4794033e-09
-1.835755e-08 4.345796e-08 0.15901496 -6.4334227e-09 -1.0158147e-08 8.755556e-09 1.1369621e-08 -9.179726e-09
-1.7816067e-10 -1.7963961e-09 1.2401731e-09 -1.6384867e-08 -1.6922877e-10 -2.812054e-09 2.3938305e-09 1.7345174e-08
2.8894067e-09 -3.2570096e-08 -2.9103306e-09 0.15956497 -4.9451607e-09 -2.9286138e-09 -3.568396e-09 2.4284258e-08
-2.8883898e-08 -3.843848e-07 -2.0796647e-07 1.6049748e-07 2.2627312e-07 -3.4653317e-07 -4.279066e-07 -2.4172923e-07
4.154888e-07 1.9274931e-07 -3.9978534e-07 5.9165068e-08 0.16038442 -3.2912422e-07 -4.1231647e-07 -2.2325601e-07
5.5235305e-09 2.7919427e-08 2.0384954e-08 1.5952216e-08 -2.2097138e-08 2.4026262e-08 4.481202e-08 9.574827e-09
-3.2277384e-08 3.1367076e-08 2.658747e-08 -6.4989587e-09 -1.6899422e-08 0.1590965 2.9392547e-08 1.9043416e-09
2.048767e-09 6.1505196e-09 6.766029e-09 -7.5775664e-10 -9.775976e-09 5.910453e-09 1.1231015e-08 1.682424e-08
-9.505965e-09 -8.601478e-09 6.726113e-09 -4.291422e-09 -1.0338717e-08 7.739714e-09 0.15910107 1.8164041e-08
7.745375e-09 9.6831755e-08 4.4057926e-09 1.1123878e-08 -2.922366e-08 6.817011e-08 1.5913706e-07 4.1848978e-08
-1.149712e-07 4.9390618e-08 8.767454e-08 -2.915009e-08 -6.6223e-08 6.071581e-08 8.043635e-08 0.16199297

local_net.mul_blocks.1.conv1.bias f4 [16]
00000000: 940d aa3c f4d6 a6bb 521c 4429 04a4 0bae
00000010: b7eb fb30 3054 8eab 2fee 7334 3381 8aae
00000020: 45a4 b230 cdf2 7a39 5693 6731 62ca ba36
00000030: 1a1b 4cb7 24e5 2ab0 70e1 472f a288 403a
0.020758428 -0.0050915424 4.3545307e-14 -3.1750616e-11 1.8329648e-09 -1.0113074e-12 2.2717789e-07 -6.298464e-11
1.2997893e-09 0.00023932308 3.3698675e-09 5.5667924e-06 -1.2165658e-05 -6.217127e-10 1.8179036e-10 0.00073445786

local_net.mul_blocks.1.conv2.bias f4 [16]
00000000: 6ebb 6439 0a43 433c f1b0 11b9 b715 1c3c
00000010: e9a3 cf3b f7d4 8c3c dc0c 1b3c b532 d33c
00000020: 1389 a43c 037e 0f3b 9313 723b 687b 44b3
00000030: 6ef2 b7bc 2b06 da3c 1d08 163c a9b4 2c3d
0.00021813597 0.011917839 -0.00013894193 0.009526662 0.0063366783 0.017191393 0.009463515 0.025781015
0.020084893 0.0021895177 0.0036937937 -4.5747043e-08 -0.022454467 0.02661427 0.009157208 0.04216448

local_net.mul_blocks.1.attn.bias f4 [16]
00000000: 4347 093d 558a b9bc 371b 2dbb c141 8638
00000010: 8ae2 b7bc 02f9 ff31 d6e6 d33b 84a7 933c
00000020: 05cd 8aba 2e54 b4bc d2ac cf3b f5fe ce37
00000030: bd98 893c b022 9eb1 80bb 9f3c ac61 b9bb
0.033515226 -0.02264897 -0.0026413926 6.4018655e-05 -0.02244689 7.4497857e-09 0.006466727 0.018024214
-0.0010589665 -0.022012796 0.0063377405 2.4675837e-05 0.016796464 -4.6023487e-09 0.019498587 -0.0056573953

local_net.mul_blocks.1.norm2.alpha f4 [1, 1, 16]
00000000: 91d9 223e 1ae8 223e b9d4 223e 6ad8 233e
00000010: ded2 223e 4bc8 223e afde 223e ff52 233e
00000020: f9d4 223e a219 233e fcd8 223e 1bcf 223e
00000030: d62a 233e 0ed7 223e c8df 223e 96d6 223e
0.15903307 0.15908852 0.1590146 0.16000524 0.15900752 0.15896718 0.1590526 0.15949629
0.15901555 0.15927747 0.15903085 0.15899317 0.1593431 0.1590235 0.15905678 0.1590217

local_net.mul_blocks.1.norm2.beta f4 [1, 1, 16]
00000000: 4f3b 5137 4937 9138 0358 fc37 061f 2eb7
00000010: a62c 79b8 7e38 6338 2697 5738 fd50 4038
00000020: 9f76 a5b8 a7ac a6b6 97e4 5738 be2b 3bb8
00000030: d0ea 87b7 c4a6 7038 6278 6038 22ca ba37
1.247118e-05 6.9244365e-05 3.0081725e-05 -1.0378431e-05 -5.940781e-05 5.417363e-05 5.1400762e-05 4.5851793e-05
-7.889908e-05 -4.967285e-06 5.1472885e-05 -4.4625012e-05 -1.6202597e-05 5.737577e-05 5.3517877e-05 2.2267053e-05
